nn/max_walk.pt (torch, 863339 bytes, 12 tensors)

log_std f4 [50]
00000000: 324b 87bf 5d51 a6bf 2f93 b2bf 5364 9cbf
00000010: 4c85 6fbf e6fa 7cbf 4d9a 93bf b00d 8dbf
00000020: a58d 86bf b6f3 99bf 1a9e 8cbf 90e1 98bf
00000030: b9e0 adbf ede7 79bf 28e8 94bf cafe 6ebf
00000040: 638b 9cbf 96f5 68bf bcb4 b0bf 89c1 98bf
00000050: 6ebc 9dbf b228 a7bf 8e5a bfbf f272 b8bf
00000060: bbea 86bf 79f4 99bf 0fa1 90bf b728 8abf
00000070: 80dc 6cbf 3cb0 6ebf 5ab6 9fbf dd57 a0bf
00000080: 5729 d4bf 7a5d 97bf 4dde acbf b128 c3bf
00000090: 1e71 92bf b71c 89bf b46f 76bf 6043 96bf
000000a0: 19fc c2bf 47bc a8bf 0343 e5bf 5262 bdbf
000000b0: 6257 bfbf 2ffb d2bf ff1c b0bf b9ae 7cbf
000000c0: 9b58 6abf dca5 85bf
-1.0569823 -1.299358 -1.3951167 -1.2218117 -0.9356277 -0.9882034 -1.1531464 -1.1019802
-1.0511976 -1.20275 -1.0985749 -1.1943836 -1.3584205 -0.97619516 -1.1633348 -0.9335753
-1.2230037 -0.90999734 -1.3805156 -1.1934062 -1.2323129 -1.3059294 -1.494951 -1.4410079
-1.0540384 -1.2027732 -1.1299151 -1.0793675 -0.92523956 -0.9323766 -1.2477524 -1.2526814
-1.6575116 -1.1825402 -1.3505341 -1.5246793 -1.1440771 -1.0711888 -0.96264195 -1.1739311
-1.5233184 -1.3182458 -1.7911075 -1.479563 -1.4948542 -1.6482905 -1.3758849 -0.98704106
-0.9154145 -1.0441241

p_fc1.weight f4 [256, 136]
00000000: bc59 d6bd 058c a0bd 972b cabd d82e 22be
00000010: b789 643b bfa8 20bd d64b 6ebe 405d 01bc
00000020: 5d6b b8bd 6fa6 44be fb7e 253d 302f 24be
00000030: 05a3 453d 926e 62bd 7ac9 96bc 162b abbd
00000040: 4730 5b3d c110 abbd 1e33 78bd 3f02 2a3c
00000050: 03ca a63d 7966 8cbd b374 423d f704 f13d
00000060: 6f89 a1bd 9f66 003e b3d1 033c fb0b 29be
00000070: 0d96 153d a7b6 30bd 1d9e 28be f9c2 7abd
00000080: e803 4fbd 95f7 0abe 9c47 9e3d e2e6 50bc
00000090: 4be5 c73c c54a 99bd a7a5 71bd 0772 fabd
000000a0: 1d53 0abe 5db5 ea3d e5d9 a8bc 4008 9c3a
000000b0: a73c f7bc 1b4a 0f3e 5203 543c 1faa f13c
000000c0: 0afa a1bd b0f0 b6bd 9485 9ebd db0d 383d
000000d0: 8bd6 7abd 4745 22be d09f 1b3d a81b 133d
000000e0: 843e 103e 0d15 d8bd f5ca a83d 9bb9 c63d
000000f0: 939c 10be e4d3 11be 2291 523e 0137 28be
00000100: 4d73 223d 5141 093e 14ae 353e 45b7 89be
00000110: 5d3a ac3d 9a13 75bd 5eab 04be 8c95 1abe
00000120: 2cd4 8ebe 2e06 ae3c a466 ffbd 28bb b8be
00000130: 477c 4bbe ada2 ddbd 6483 c1be 6a38 b4be
00000140: 871a 53bc 8a25 bf3c def8 bdbd ed62 963d
00000150: a3d9 9abc 0ffa 733e d5c0 e83d 76d7 1fbe
00000160: ce9d dd3e 5057 753d adda 49be ced6 db3e
00000170: ccab 203e 82b1 82bd 111a 0d3f 5255 f33c
00000180: 6b0d 913d 8ace 7b3d 930c f13d befb 32be
00000190: ae6e 853d 7167 863c d0f4 8cbe d366 923d
000001a0: 053d 153d 58c4 97be ff2e adbd e22b ea3d
000001b0: 4436 71be 3cd5 2dbe 84cc c03c 5889 723e
000001c0: 1ac1 f9be 992b 093e 7d83 a23e b7b4 12bf
000001d0: 72d8 66bd 9e45 9a3e bae2 e1be e624 5c3d
000001e0: bce3 b8be 6036 f43c 8f32 f93d a952 abbd
000001f0: 31ca 9a3e 6d5d 083e 6a66 083e 1a4c 883e
00000200: 1053 103e 8453 c13e 72a3 7e3e 915b 483e
00000210: e6aa 513e 8851 233d ebcc 323c c0ad c43d
00000220: 2735 f3bc ffbc 89bd 4861 12be baf1 d7bd
00000230: 7098 18bd 72a6 87be bffc 5ebc 3389 cb3d
00000240: cc0e 1dbe 4c48 b6bd 39da 3b3d a980 88be
00000250: 4b37 1f3c e719 aebb 4f94 85be 9996 c83d
00000260: 75ef dcbd 8692 41bd 6c41 10bc 2a4a 533d
00000270: eb6f 80bd 9422 cc3c de7b efbd 1296 bebd
00000280: fc9b 9abd 9e81 ff3c 0715 ddbd 952c 32bd
00000290: 3708 49bd a528 9cbd ece0 ffba 4bce bcbd
000002a0: 8461 aebd 4aac e0bc b571 b5bd 5793 e0bd
000002b0: 2a77 0d3e 6a2f c33c 85d7 f2bd 98d7 853d
000002c0: e3b3 ac3d 0da6 4bbe ddcd ba3d 8d00 7dbd
000002d0: d954 63be bb29 f1bd 08a4 23bd ee0a 0f3d
000002e0: 0710 c3bd f8f6 453e 3ba2 9d3d e4a1 dabd
000002f0: 3811 883c ce9d 123e f455 0a3e 8887 e2bb
00000300: c551 acbd faa4 0b3d 970e b73d 4e78 413d
00000310: 9c58 f1bd c7f2 bfbd 1e32 febd c462 19bd
00000320: c409 a9bd a1a9 f6bd 1aba c73d 1b3e dabc
00000330: 1ad2 2c3e 2e52 0c3e f4eb 01bc 60a5 c63d
00000340: 2750 f03d ee3b dfbd ae40 80bd 6d37 d73c
00000350: 3002 f6be c577 40be e982 043e cfda d8be
00000360: 49b6 98bd 8901 253e 9eff 663c fb53 9d3d
00000370: 4333 3cbd 06da 9c3d a425 e13d aa46 f1bd
00000380: e132 0dbe 63eb 11be 806a 52be 917a 99bd
00000390: 8564 29bd 3de4 2ebd 438d eebd d05a 81bc
000003a0: cf03 27be 1fa2 c13d 2743 75bd 44ee 9ebd
000003b0: 167a ca3d f789 ffbd ac93 7cbe 2caf 7d3e
000003c0: 4edc 13be cbfc 8abe c1be f73d d78c 80be
000003d0: b084 6bbd b25c 3b3e fcac 22be 11cc 033d
000003e0: d44f 9cbc a770 253e 5acb 25bd 58dd a7bd
000003f0: 947f 873e 127c dc3d de6d 4abd fc85 3e3e
-0.10466334 -0.078392066 -0.09871595 -0.15838182 0.0034872124 -0.03922343 -0.23271117 -0.007895768
-0.09004853 -0.19204114 0.0404043 -0.16033626 0.04825117 -0.05528123 -0.018406618 -0.08357827
0.053512838 -0.08352805 -0.060595624 0.010376512 0.081439994 -0.068554826 0.047474574 0.11768525
-0.078875415 0.12539147 0.008045602 -0.16508476 0.036520053 -0.04314294 -0.16466565 -0.061221097
-0.050540835 -0.13571008 0.07728502 -0.012750359 0.024401328 -0.07484964 -0.05899587 -0.1222878
-0.13508268 0.114603736 -0.020611713 0.0011904314 -0.030180288 0.13993113 0.012940245 0.029500065
-0.07909019 -0.08932626 -0.07740322 0.04493509 -0.06123976 -0.1584674 0.037994206 0.035915047
0.14086348 -0.1055089 0.08241836 0.0970337 -0.14122228 -0.14240986 0.20563176 -0.16427232
0.03966074 0.13403822 0.17742187 -0.26897636 0.084095694 -0.059833147 -0.12955996 -0.1509611
-0.2789625 0.021243181 -0.12470749 -0.3608029 -0.19871627 -0.108220436 -0.37795556 -0.3519929
-0.012884743 0.02333333 -0.09275983 0.07343087 -0.018902605 0.23825859 0.11364905 -0.15609536
0.43284458 0.05989772 -0.19712324 0.4293732 0.15690535 -0.06381513 0.551179 0.02970377
0.070826374 0.061476268 0.117699765 -0.17478845 0.06515251 0.016406747 -0.27530527 0.071485184
0.036435146 -0.29641986 -0.084562294 0.11434151 -0.23555857 -0.16975874 0.02353502 0.23685205
-0.48780137 0.13395537 0.31740943 -0.57307 -0.056358762 0.3013124 -0.4411829 0.053746127
-0.36111248 0.029811084 0.121678464 -0.083653755 0.30232385 0.13316889 0.13320318 0.2662056
0.14094186 0.3775903 0.24867037 0.1956618 0.20475349 0.039872676 0.010913114 0.09603453
-0.029688431 -0.06725501 -0.14294922 -0.105441526 -0.03725475 -0.26494175 -0.013610064 0.09938278
-0.15337676 -0.08900508 0.04586241 -0.2666066 0.009717773 -0.0053131464 -0.26089713 0.09794349
-0.1078786 -0.047258876 -0.00880466 0.0515844 -0.06271347 0.024918832 -0.11693548 -0.093059674
-0.07549283 0.031189736 -0.10795026 -0.043499548 -0.0490801 -0.0762494 -0.0019521988 -0.09219035
-0.085146934 -0.027425904 -0.088595785 -0.10965603 0.13814989 0.02382632 -0.11857513 0.06535262
0.08432748 -0.19887562 0.091212966 -0.061768103 -0.22200336 -0.117755376 -0.039951354 0.034922533
-0.09524541 0.19332492 0.07696959 -0.106754094 0.016609773 0.1431801 0.13509351 -0.0069131292
-0.08414034 0.03409288 0.0893833 0.047233872 -0.11784479 -0.09372478 -0.12411903 -0.037447706
-0.08253816 -0.12044073 0.09752293 -0.026640942 0.16877022 0.13703224 -0.007929791 0.096995115
0.11734038 -0.109001026 -0.06262337 0.026271546 -0.48048544 -0.18795688 0.12940563 -0.42354438
-0.07456643 0.16113867 0.01409903 0.07682034 -0.045947324 0.07658772 0.109935075 -0.11781056
-0.1378894 -0.14249949 -0.20548439 -0.07494081 -0.04135563 -0.042698134 -0.11648037 -0.015790373
-0.16310047 0.0945475 -0.059878495 -0.07760289 0.09886567 -0.124774866 -0.24665707 0.24773854
-0.14439508 -0.2714599 0.1209693 -0.25107452 -0.057499588 0.18297079 -0.15886301 0.032177035
-0.019081034 0.16156255 -0.040477134 -0.08196515 0.26464522 0.10765852 -0.049421184 0.18605798

p_fc1.bias f4 [256]
00000000: 9c1d 81bc c67a d03c 18e0 2dbd 5c10 97bb
00000010: b8a3 cebc f033 f4bc cc1f e43b fd2a ec3c
00000020: d2c9 b2bb 9479 05bd a61a 753b 36d7 47bb
00000030: f263 f23c 0c85 8abc 78c4 0b3c 6a6f 683b
00000040: cf77 b63c 658d 4d3c efb2 f73c 7d28 b6bb
00000050: 007b 113c 63d7 a4bc f216 a63a aaef d63a
00000060: e8be 1abd 2adc 0fbd 1531 0dbd fb35 4a3b
00000070: 1015 c8bc b545 393b 6579 0cbd be4c b0bc
00000080: 2d68 8a3b 788d 023d 12ca a13b d69c a1bc
00000090: 503a 01bd e4cb 9e3a b721 78bd af64 7cbd
000000a0: 132d 23bd 9c31 d1b9 3560 b138 2376 5bbc
000000b0: f40e a5bc 553f 3ebb 4662 d43c 1bf5 613b
000000c0: 7c7b 52bb 516a 94bc aff3 80ba 1740 b63b
000000d0: 198e 44bc 9acc 8ebc 6fc8 353c a13f 9dba
000000e0: 7ba9 5abd 6db8 76bd 6c76 be3b 5841 89bc
000000f0: 548c 64b7 6ef0 913b a273 c13c 578b 6fbd
00000100: 677e f2bc 6cd7 6f3a 1286 8c3b 8fc1 edbc
00000110: 9b66 2e3d d2b1 823c 76eb 5a3b 49d1 a1bc
00000120: 604c 30bd 5681 8d3b 960c a73b 8534 a33b
00000130: bb3c 0f3c cca6 37bd 9010 c93b cff3 1eba
00000140: 58fb 013d aaaf 83bc 1368 e83b a68a 1dbd
00000150: 2dcd c7bc 98c6 ef3b 1a4c b7bd ee0d 253c
00000160: 6d38 48bc 9436 b8bc 00bc 01bd ca89 10bb
00000170: 532b 8bbd 3409 613a dae5 8bbd 82ac 90bb
00000180: 2e45 bebc 9b0c f2bc 2254 9dbb b2fe f8bb
00000190: 61d2 153c f95c 37bc 4da9 b0bd 19a0 cfbb
000001a0: 86e3 5d3b 04c4 24bc 735f 26bd 1d5d 30ba
000001b0: 5d80 eebb 0461 d8ba e0c5 a0bc c541 413c
000001c0: 8e80 083d 0c7a d9bb c69a 76ba d10a 8c3c
000001d0: 99da a9bc 0a0a 61bd 59c5 793d fa43 303c
000001e0: 7f55 1cbd 112a 82bc 712c fe3b 8617 0dbd
000001f0: 35e6 ee3b 9a5b 94bb e2aa 79bc ac25 03bc
00000200: bbf7 f93c 4d10 91bc 4532 64bd 4afe 34bb
00000210: 16a8 28bc 5d3b 9f3c 2234 7fbc ec73 9bb9
00000220: 63ce 0ebd eb6e a4ba 3218 7bbc a68e 333c
00000230: aee5 c0bc 6722 b5bb 4910 ef3b 637e 1fbc
00000240: 7330 18bc 5fdb 3abd d0d3 4a3c a650 89bc
00000250: c00e 4d3c ffb6 183c fe75 06bc 1bd8 cdbc
00000260: f21c 063d b370 483b e4aa 693c 96e9 583b
00000270: 59b4 09bb 7fb9 ce3b e215 1c3c d391 00bd
00000280: fc81 26bc a358 cfbc 0763 563c 5219 dfbb
00000290: 2bd6 f7ba 727b 4c3c 6562 45bd 04ab 85bd
000002a0: fd2b 55bd a612 ab3c e3b2 d63c 8bf0 013d
000002b0: 47c8 29bd d0ed f7bb b008 2d3a 1b2a 383a
000002c0: e6e0 7d3c d140 a4bc a7a5 cfbc 6a1a 2bbd
000002d0: f270 80bc e33e 82bc 056f 96bc d944 263d
000002e0: b659 d9ba 3bba 54bc 4aef 40bc 7cbb 613b
000002f0: b0cd cbbc 1e91 b4bb d123 b6bd 23ba e5bb
00000300: 3eab 86bd 20ef 123c 19c2 90bc d1c9 93bd
00000310: 03a8 9e3c 152c 8cbc 39a1 b5bc 61d1 89bc
00000320: d6d9 87bb 52eb b93a ea7e 00bd 646d f6ba
00000330: e12e 9c3b 16b7 a2bb 99c4 32bc 1dd1 64bb
00000340: 10d1 ff3c 9ca9 95bc 35ef 17bc 06e3 dbbc
00000350: c71d 1fbc 50b7 0ebd 5dc0 a3bc 7b1d 243c
00000360: e32f 433b 4f42 fa3c 8bf3 983c d04b 673c
00000370: 883c c53b 72e0 27bd 9c6e 833c 1c46 d93c
00000380: 078b ffbb dd3b c1bc 6eca 3cbc 49e9 bebc
00000390: e8b6 5ebb 7d1b 4eba 7b86 fabc 421a 6ebc
000003a0: 65cb 81bc 8fa2 8b3b e153 c03b 854b a93b
000003b0: 96b9 d4bc 9fc6 473b 22af 90bc 4a39 1cbc
000003c0: 922f ffbc 1542 babc 03e8 773c e5df 8ebb
000003d0: ca1c 5abc 1181 78bd 3bd5 76bc c270 953c
000003e0: f126 5abb 0fbb 20bd ef32 34bc 3b6b c2bb
000003f0: 866a 563c 8b4b 873c 8748 f03b 4bb8 7f3c
-0.01576119 0.025449168 -0.04245004 -0.0046101045 -0.025224552 -0.029809922 0.0069617983 0.028829092
-0.0054561878 -0.03258665 0.0037399917 -0.0030493266 0.029588673 -0.016909145 0.0085307285 0.0035466799
0.022273926 0.012545918 0.03023669 -0.005559026 0.008879423 -0.020122236 0.0012671633 0.001639833
-0.03777972 -0.035122074 -0.034470636 0.0030854929 -0.024424106 0.0028270308 -0.03429546 -0.021520969
0.0042238445 0.031873196 0.0049374187 -0.019728106 -0.03154975 0.0012115208 -0.060579028 -0.061619457
-0.039837908 -0.00039900548 8.457938e-05 -0.013394865 -0.020148732 -0.0029029448 0.025925767 0.003447837
-0.003211706 -0.018117102 -0.0009838248 0.0055618393 -0.011996769 -0.017431546 0.01109515 -0.0011997112
-0.053384285 -0.060234476 0.005812457 -0.016754791 -1.3622532e-05 0.0044537103 0.023614708 -0.058482494
-0.029601289 0.0009149227 0.0042884434 -0.02902296 0.04257832 0.015953932 0.0033404506 -0.019753115
-0.043041587 0.0043183966 0.005097936 0.004980626 0.008742507 -0.044836804 0.0061360076 -0.0006063552
0.03173384 -0.016074974 0.0070924847 -0.038462304 -0.024389828 0.0073173754 -0.08950062 0.010074122
-0.012220484 -0.022486962 -0.03167343 -0.0022054785 -0.06795373 0.000858444 -0.0683095 -0.004415096
-0.023226347 -0.029547026 -0.004801289 -0.0075987214 0.0091443965 -0.0111916 -0.086260416 -0.006336224
0.0033857538 -0.010056499 -0.04061837 -0.0006727742 -0.0072784857 -0.0016508405 -0.019625604 0.011795466
0.033325724 -0.0066368636 -0.00094072183 0.017095001 -0.020734118 -0.054941215 0.06097922 0.010758394
-0.038167473 -0.0158892 0.0077567627 -0.03444626 0.0072906264 -0.0045275213 -0.015238496 -0.008004587
0.030513635 -0.017707968 -0.055712003 -0.0027617388 -0.010293981 0.019437486 -0.015576394 -0.00029650272
-0.034864794 -0.0012545263 -0.015325593 0.010959303 -0.02354702 -0.0055277827 0.0072956425 -0.009734723
-0.009288895 -0.045619365 0.012379602 -0.016762089 0.012515724 0.009320973 -0.0082068425 -0.025127461
0.03274245 0.0030584752 0.014261935 0.0033098212 -0.0021012037 0.006308734 0.009526702 -0.03138907
-0.010162827 -0.02531082 0.013085133 -0.0068084383 -0.0018908432 0.0124806035 -0.04818954 -0.06526759
-0.052043904 0.020882916 0.026208347 0.03172354 -0.041450765 -0.0075661913 0.0006600721 0.0007025317
0.0154955145 -0.020050438 -0.025347544 -0.041773237 -0.015678857 -0.015899127 -0.018363485 0.040593002
-0.0016582522 -0.012983854 -0.011775801 0.0034444025 -0.024878353 -0.0055104634 -0.0889355 -0.0070107146
-0.065756306 0.008968145 -0.017670678 -0.07216228 0.019367224 -0.017110864 -0.022171604 -0.016823472
-0.004145841 0.0014184511 -0.031371035 -0.0018800911 0.0047663306 -0.004965673 -0.01091113 -0.003491468
0.031227618 -0.018269353 -0.00927334 -0.026841652 -0.009711689 -0.03484279 -0.019989187 0.010016794
0.0029783181 0.030549197 0.018670818 0.014117196 0.006019179 -0.040985532 0.016043954 0.026522689
-0.007798556 -0.023588115 -0.011522872 -0.023304598 -0.0033983532 -0.00078623724 -0.030581703 -0.014532628
-0.015844056 0.004261322 0.005869374 0.0051664733 -0.0259674 0.0030483378 -0.017661635 -0.009535143
-0.031150613 -0.022736588 0.0151309995 -0.0043601864 -0.013312528 -0.060669962 -0.015065487 0.018242244
-0.003328737 -0.039240893 -0.010998472 -0.005933193 0.013086921 0.016515514 0.0073328647 0.015607904

p_fc2.weight f4 [256, 256]
00000000: d7c2 32be a664 b83b fae6 94bb 873c 153d
00000010: 4557 243e 4588 2fbd 097f b9bd 5f5f 003e
00000020: 224a 1fbe 2ec2 41be c132 293e 843e 9b3c
00000030: 2b11 6abe 98cc 81bd 8194 b6bd 2b5e 38be
00000040: 9f2f 653e de28 dfbc 3e01 b2bd 4813 d23c
00000050: 678c 0dbe 239a 3e3e fea4 813e bc5c 3cbe
00000060: 5f4b be3d 3f11 613e dd87 5c3e 871a 17be
00000070: df03 81bd b11a eb3c 60e3 6dbc 8041 eb3c
00000080: 9311 92bd 7096 913d b006 603e f155 5cbc
00000090: b313 c03d 20f4 b43d 35ba 68bd 48db dd3c
000000a0: e335 b03c a5d6 c7bd f01e 423e d070 84bd
000000b0: 4591 92bd 0630 b63d 7c87 fc3c b772 483e
000000c0: 8ddc 013d 79bf c93d b75d 143e ccfe 7c3d
000000d0: 4b82 b43b 9bf8 5dbe f634 4d3d 6323 973d
000000e0: 0871 5fbe 43f3 d2bd 350c ccbe bb15 a4bc
000000f0: 3073 ec3b bc42 963e e106 0e3e 1b16 563e
00000100: 41e9 e63d 69dc 6fbd ed2c 003d 2b87 edbb
00000110: bedd 15be 11c4 973b cbe0 cb3c 851c 7cbd
00000120: 534b c6bd d43b 243e d34a bf3c ed37 dd3d
00000130: 082c a7bc c138 c5bd 116d ebbd 6061 803d
00000140: 2ad0 08bd 191d c2bc 48da 0e3e 9816 11be
00000150: b292 993d 810b 4cbd 44f3 9a3d 761f 07bb
00000160: 6a41 0ebc 6165 60bd 402e 203c 6924 243d
00000170: e8b2 b8bd 680f cf3c 12e6 e13d 9dcb f9bb
00000180: 98f5 9ebd 752d 81be 5102 d9bd c7ec fb3c
00000190: a2bb 9ebe c8cc 763e 53f4 d2bc fc7e 173e
000001a0: 5435 43be f69b 133e 9ec3 8abe 50ff 9b3b
000001b0: a495 76be 5451 1e3e 2483 e6bd 0b40 023e
000001c0: 327e c1bd d938 19be d966 4abc c625 203e
000001d0: 1367 263e d9f5 033c 74a5 8bbc c4c9 4c3d
000001e0: 8338 243d a28b 07bd 27f6 7cbe b672 113e
000001f0: ccdc 86be 141c 7f3e 629d 5d3e 66fa c1bd
00000200: 7d63 b43d a8d5 7bbe 9c9a 13be 4af2 89bc
00000210: f0ca 52be d771 d43d 5c34 e33d f385 593d
00000220: 2a91 393d 3a5d dabd ae73 7dbe 28d4 60be
00000230: 6b9a 403d 647f d6bc 3ee2 f33c 57d0 883d
00000240: 07e1 943d 0ba4 4f3e 482d 773d 3504 253e
00000250: 2277 4fbe 1bf2 ebbd 50b1 d03d 27cb fe3d
00000260: 41e4 4a3e c473 6ebd b817 15be a9d4 a7be
00000270: 4dfe 94bd 8dc2 823c c8b5 13be bc36 253d
00000280: 659c bf3d dad5 32bd d7eb a2bd db25 edbd
00000290: 357c 11bd 4493 813c acd2 143e a4da 6abd
000002a0: 352c 063e 3a12 07be 597a 30bd c094 293e
000002b0: d3fb 91bc 9e37 243e 3eb4 a93d 6a05 4cbd
000002c0: 093f 6bbe f8ea 283b a68c 163e 95cf 92be
000002d0: f202 f13d e336 15bc ce35 113e def7 afbd
000002e0: 5d53 21be 734c f538 9446 9f3d 9827 1b3d
000002f0: 61ea e2bd 0440 ccbd f6cd 41bd f842 82bd
00000300: 329c 93bd dd12 b3bd 205c d33d 6d28 8f3d
00000310: 80d6 4f3c d5b6 22ba 39de 88bd 0b1c 39bd
00000320: 2e26 b23c 5fec d13c c59c 4abc 79ec 55bd
00000330: 8773 d8bc a03c 553d ba85 13be 8129 30be
00000340: 4a1f 303e 9485 b23d 3891 d2bb fa2b 3bbd
00000350: 78d3 9f3d bf6f 043e f6d9 403e 7c36 013e
00000360: fd5f c03d 11d2 82bd 3a95 76bc efa6 653d
00000370: 6b1e 933d b90c bbbd 84dc 5ebd 413f 0ebd
00000380: 572e 113e b578 fb3b 5969 c63c 54d7 5cbe
00000390: b38e 9dba 37c6 863d ac76 92be b47f 95bd
000003a0: 2296 d43d 8f1b a63d 426a 913d 49a0 533c
000003b0: 234b 3ebd fe21 ec3c b1bf 103d de3e 333e
000003c0: 2b49 3ebc ce29 323e 3e8a 033e 437a ba3c
000003d0: 1d34 033c 545d 59ba d479 083e 80ef 1bbd
000003e0: 655b fdbd eae6 3fbc c766 febd ac0a 5e3d
000003f0: 2e66 033e aa59 bc3d e756 27be ba8a b4bd
-0.17457138 0.0056272326 -0.004544136 0.036434676 0.16048916 -0.042854566 -0.09057433 0.12536381
-0.15555623 -0.1892173 0.16523267 0.018950708 -0.22858112 -0.06337851 -0.089150436 -0.18004672
0.22381447 -0.027241167 -0.08691643 0.02564396 -0.1382309 0.18613486 0.25321192 -0.1839475
0.0929172 0.21979235 0.21536203 -0.14756213 -0.062995665 0.02869925 -0.014519542 0.028717756
-0.07132258 0.07108772 0.21877551 -0.013448224 0.09378757 0.08835626 -0.056818206 0.0270821
0.02151007 -0.09757737 0.18957114 -0.0646683 -0.07156614 0.088958785 0.030826323 0.1957501
0.031704474 0.09850974 0.14488874 0.06176643 0.005508696 -0.21676867 0.050099336 0.07379796
-0.21820462 -0.10300305 -0.39853063 -0.020029893 0.00721588 0.2934779 0.13869812 0.2090687
0.112749584 -0.05855981 0.031292845 -0.0072487793 -0.14635369 0.0046315272 0.024887463 -0.061550636
-0.09682336 0.16038448 0.023351109 0.108016826 -0.020406738 -0.096299656 -0.11495412 0.06268573
-0.033401646 -0.023695515 0.13950455 -0.14168775 0.07498683 -0.04981566 0.075659305 -0.0020618117
-0.008682588 -0.054784182 0.009776652 0.040073786 -0.09018499 0.025275901 0.110302106 -0.0076231495
-0.07761687 -0.25229993 -0.10596145 0.030752553 -0.31002527 0.24101555 -0.025751268 0.14794534
-0.19063312 0.14414963 -0.2710237 0.00476066 -0.24080521 0.15460712 -0.11255482 0.12719743
-0.09447898 -0.14963092 -0.012353622 0.1563941 0.16250257 0.00805422 -0.017046668 0.049997106
0.040092956 -0.03309215 -0.24703275 0.14203915 -0.2634033 0.24913055 0.21642068 -0.09471588
0.088080384 -0.24593222 -0.14414448 -0.016839165 -0.20585227 0.10373276 0.11093971 0.05310626
0.045304455 -0.10662313 -0.2475116 -0.21955931 0.047022264 -0.026183791 0.029770967 0.06680363
0.07269483 0.20277421 0.060345918 0.16114886 -0.2026029 -0.11520787 0.1019007 0.12441092
0.19813634 -0.05821587 -0.14559829 -0.32779434 -0.072750665 0.01596191 -0.14424813 0.040335402
0.09356002 -0.043660976 -0.07955139 -0.11579486 -0.035518844 0.015817292 0.1453349 -0.05733742
0.13102801 -0.13190547 -0.04308543 0.1656065 -0.017820274 0.16036841 0.082863316 -0.04980985
-0.22973265 0.0025774818 0.1470209 -0.28673998 0.1176814 -0.009107324 0.14180681 -0.08592199
-0.15754457 0.0001169675 0.077771336 0.037879556 -0.110798605 -0.099731475 -0.04731556 -0.063604295
-0.07207526 -0.08743832 0.10320306 0.069901325 0.012685418 -0.00062070537 -0.066830106 -0.04519276
0.021746721 0.025625406 -0.012366478 -0.05222747 -0.026422275 0.05205977 -0.14406481 -0.17203332
0.17199436 0.08716884 -0.006426003 -0.045696236 0.07804006 0.12933253 0.18833145 0.1261844
0.09393308 -0.06387723 -0.015050227 0.056067403 0.07183536 -0.09133286 -0.05440952 -0.034728292
0.14177833 0.0076743015 0.024220156 -0.21566516 -0.0012020677 0.06580775 -0.28606164 -0.07299748
0.10380198 0.08110725 0.07100345 0.012916633 -0.046458375 0.028824802 0.03533906 0.1750445
-0.011614124 0.1739876 0.12845704 0.022763377 0.00800803 -0.00082918 0.13327724 -0.038070202
-0.12370948 -0.011712769 -0.12421947 0.054209396 0.12831947 0.091967896 -0.16341744 -0.088155225

p_fc2.bias f4 [256]
00000000: 30ff 693d 8185 c93c 6675 7d3c 9190 ca3c
00000010: c19f 833c 860f 0e3c efa1 3bbc 7e31 213c
00000020: 5cf1 cbb9 7c91 82bc 03e7 3cbc 8067 56bb
00000030: 14b5 65bc 3eeb 093d 6b82 383d 9bcd cb3c
00000040: f05c 7f3d 54ee 9fbc f585 29bd ffba 703d
00000050: 4089 e63d 13be 17bd 3aaf 373d 005c 9ebc
00000060: 28c8 5ebd 691a bebc 123e 0fbd 38dc 1c3d
00000070: b691 b43c 4863 1ebd d627 de3c 9c3c 01bc
00000080: 9db3 693c 6c4f a5bc 37f9 4c3d c3dc 1abd
00000090: 5327 143d bd62 0dbd fc85 c93c d2c9 16bd
000000a0: 1389 3f3d cce9 6b3d 3f82 2fbd 9975 8bba
000000b0: 14e5 18bd ad66 253c 9388 53bd 2dc8 89bc
000000c0: 8a3a 4bbd c562 11bc 81e2 2bbb 56c8 873c
000000d0: c6a1 de3c ef40 9f3d a0b0 a5bc 4908 61bc
000000e0: 8764 b3bc 4ab0 b2bc 323b 04bd 9a19 683d
000000f0: 5828 ddbb bb5f e5bc 6358 e53c 121b 8e3c
00000100: 5c85 c63c a698 14bd 155b c03c fcaf 65bd
00000110: 49c1 62bc 5f35 2abd 4d2a 3fbc 71aa 15bb
00000120: 9e13 b1bc 5757 a73c a47b 103d 9db6 1a3c
00000130: 2975 11bd 9dbc 283b 9165 d2bc 30d0 083c
00000140: 7fc7 27bd 59d3 17bd 1f16 40bc 46e7 febc
00000150: 7018 39bd 122a 1bbd 1b43 093d 8893 efb9
00000160: f5ed 6b3d b699 283b e969 dcbc d229 453d
00000170: 5476 76bd 12ea 16bd 2b14 933c 3c0b 1ebd
00000180: 7d58 3dbc f3b4 a8bc 3b7e 653c 34ce 273c
00000190: bf94 39bd 75f7 84bc 1f46 26bb 0ebf abbc
000001a0: dec6 a33c 9497 77bb 7a90 b4bc 6fb8 6c3c
000001b0: 6d0e c13c 6ed3 c33c 591d 6cbb 6ed4 903d
000001c0: a12b b3bc fa3b abbc 7f3f 013d b4c1 5fbc
000001d0: 249f 273c aa3f 57bd 892c a3bc 0a78 d5bc
000001e0: d6b6 2a3c 95a8 1cbd 4c59 c7bd 8159 113c
000001f0: 5b7d 703d 6217 343d 4dcb 4d3d 88d0 0c3d
00000200: 08bf 913c 5948 183b c3fb 55bc fa25 89bd
00000210: bc68 213d e56e 563c affb e53b 70fb 1cbd
00000220: 827e d23b c8f3 9dbc 3089 dcbc 305f da3d
00000230: ebbf a5bc 243f 7c3d 3ea8 bbbc d752 e33c
00000240: 37b2 cd3b 67e6 87bd 52d8 37bb 185c 28bd
00000250: ee0b 92bd 8b49 2239 5c55 783d 7055 6dbc
00000260: cc9f 3cbd a276 c33d 957a 1abd 5f6e 423c
00000270: 026b c53c df17 e33c 772c 5fbc b12d b4bb
00000280: 8c3a 3fbd 7953 893b a3c7 cb3c 335b cc3b
00000290: 12a2 c1bc 3f33 f4ba 0f10 433c 4369 3ebc
000002a0: 66f5 01be 3707 d1ba b6e5 67bc 498e f5bc
000002b0: 2b26 b73d d691 0bbd 78c8 c23c f2e0 ed3c
000002c0: 8695 773c 7cb6 42bd b58f 4b3c 9ceb 8d3d
000002d0: 7737 a03d 6522 68bd 3e6b 193d 3158 9c3c
000002e0: ec1a 93bd 4b64 b3bd 07f8 3fbd ef9c 5b3b
000002f0: 7f59 2ebc ca0f c33b 3c8b 313d ccae 8ebc
00000300: d13b 093d 1a47 febc 809b dcbc d0f0 6ebc
00000310: cd40 86bc 6f64 443d 85a3 9c3d 3af0 5f3d
00000320: 3049 503c 31b6 0dbd 6957 333d afd7 e1bc
00000330: c2cd 09bc 8388 e3bb a391 dd3c d93d a63d
00000340: fc4b 833c 741e 2b3c 7fbf 6e3d c53e 2e3a
00000350: 06e8 843d 2374 51ba e1ff 053d 835a 42bd
00000360: 0673 163d 9502 0f3d 9e93 84bd f127 86bd
00000370: fe0f b2bb 9068 2ebd 5b6d c83c e0db c33b
00000380: bc82 a0bc de6e a23c e226 903c 3e4e 78bd
00000390: 779e 94bc e5b0 15bb 6afa 8ebd f777 97bc
000003a0: 3ab4 32bd 2564 6dbc afb5 0d3c 5e0b 303c
000003b0: bd3f 1a3d a407 e5bb 7509 033c d5f8 9b3d
000003c0: 5de1 44bd eca8 2c3d 955a 1b3a 2a62 54bd
000003d0: 4dec 473c 3d19 ae3d 5f5e 76bc 2365 65bd
000003e0: e373 6bbd 3f7e 2d3d 82e1 a0bd 24d4 023d
000003f0: 25ea 273b 2f57 d33c ac78 b83b abdf 783d
0.05712813 0.024599792 0.0154698845 0.024727138 0.016067388 0.008670693 -0.011452182 0.00983846
-0.00038899004 -0.015938513 -0.011529687 -0.00327155 -0.014020223 0.03367161 0.04504625 0.024878314
0.06234449 -0.019522823 -0.041387517 0.058772083 0.11256647 -0.037046503 0.044844843 -0.019330978
-0.054390103 -0.023205953 -0.034971304 0.038295954 0.022042137 -0.0386689 0.027118605 -0.007887986
0.014264015 -0.020179473 0.050042357 -0.03780819 0.036170315 -0.034517992 0.024600022 -0.036813565
0.046761584 0.057596013 -0.04284882 -0.0010639905 -0.03732784 0.010095281 -0.05164392 -0.016819084
-0.049616374 -0.008873646 -0.0026227536 0.01657502 0.027176749 0.07776057 -0.020225823 -0.0137348855
-0.021898521 -0.021812577 -0.032283016 0.05666504 -0.006749194 -0.02799975 0.027996248 0.017346893
0.024233513 -0.03627839 0.023480931 -0.056076035 -0.013840028 -0.041554805 -0.0116678 -0.0022837187
-0.0216158 0.02042739 0.035274163 0.009442952 -0.035512123 0.0025747188 -0.025683196 0.008350417
-0.04096174 -0.03706679 -0.011724024 -0.03111614 -0.04518932 -0.03788192 0.033511262 -0.00045695552
0.05759998 0.0025726384 -0.02690597 0.048135586 -0.06017144 -0.03684432 0.017953953 -0.038584933
-0.011556742 -0.020594096 0.0140071465 0.010242034 -0.04530787 -0.016231278 -0.0025371385 -0.020965125
0.019992288 -0.0037779557 -0.022041548 0.014448269 0.023566449 0.023904528 -0.0036028235 0.07071768
-0.02187139 -0.020902622 0.031554695 -0.013657022 0.010230813 -0.05255095 -0.019918697 -0.026058216
0.010419568 -0.03824671 -0.09733829 0.008871437 0.0587133 0.043967612 0.05024271 0.03437856
0.017791286 0.0023236482 -0.013060513 -0.066966966 0.039406523 0.013087963 0.0070185284 -0.038325727
0.0064237723 -0.019281283 -0.026920885 0.10662687 -0.020233115 0.061583653 -0.022907373 0.027749462
0.0062773484 -0.06635743 -0.002805252 -0.041103452 -0.07131182 0.00015476921 0.06062828 -0.014485702
-0.04605083 0.09544112 -0.03771456 0.011867135 0.024098877 0.027721344 -0.013621441 -0.005498611
-0.046686694 0.004190859 0.024875468 0.0062364577 -0.023636851 -0.0018630995 0.011905684 -0.011621776
-0.12691268 -0.0015947585 -0.014153888 -0.029975073 0.08942827 -0.034074627 0.023777232 0.029037926
0.015111333 -0.047537312 0.012424399 0.069297045 0.07823079 -0.056673426 0.03745579 0.019085022
-0.07182869 -0.08759364 -0.046867397 0.0033510288 -0.010641455 0.00595281 0.043345675 -0.017417334
0.03350431 -0.031039763 -0.026929617 -0.014583781 -0.016388321 0.047947343 0.076483764 0.054672457
0.012712762 -0.03459758 0.043784533 -0.027568666 -0.008410873 -0.0069437637 0.027046984 0.08117265
0.016027443 0.010444272 0.058288094 0.00066469266 0.064895675 -0.0007990023 0.03271473 -0.0474496
0.03673079 0.03491457 -0.06473468 -0.06550587 -0.0054340353 -0.042580187 0.024466207 0.005977139
-0.019593589 0.019828256 0.017596666 -0.060621493 -0.018141968 -0.0022841033 -0.069813564 -0.01848982
-0.04362891 -0.014489208 0.008649274 0.010744898 0.03765844 -0.006989436 0.00799786 0.0761582
-0.048066486 0.042153284 0.00059262785 -0.05185143 0.012202335 0.085009076 -0.015037148 -0.056004655
-0.057483565 0.042356726 -0.07855512 0.031940594 0.0025621739 0.025798408 0.0056296196 0.06076018

p_fc3.weight f4 [50, 256]
00000000: 08d5 9bbd 1c54 e93d a8bf cdbb a377 5d3e
00000010: c299 28be 1270 0a3e 261a 703e 21ec a1be
00000020: e9b5 823e 117c 44be 3aef 4d3e 36eb 14bd
00000030: f005 583e a7f0 0f3e 2a8f 49bd 4471 c6bd
00000040: b1af 02bb e432 da3e 7b92 c5bd 7bbc f5bd
00000050: a712 473e ec62 2bbc 50c5 1bbe 7d4a e9bd
00000060: 9fb4 e73d 6cae b4bd 9349 553e 69d6 003e
00000070: 0f91 22bd e138 643e ea48 093e 8b78 4bbd
00000080: 3fac 42be fbba 9a3e 34c6 c7bd 25fa 6d3e
00000090: 838f d53d cda2 293e 0c1a 55bc 0b14 87be
000000a0: 1b56 e93d 6ab7 c53d 60c7 073e e790 27bd
000000b0: c4fc 05bd 8719 1bbe df6a 023c 72dc 5cbe
000000c0: c261 28bd 894a 48bd b1ab 5a3d 1c05 63be
000000d0: fffe 143e fe17 36be 835c e73c 8f58 0e3e
000000e0: 7b1e 763e c6a1 0abe bc76 3c3e 887a 9a3e
000000f0: 28f5 ddbd baf8 d4be d0d5 cd3e ec70 6f3e
00000100: 5faa f13c 1f32 edba f47a 04be 0d20 bebc
00000110: 5816 ea3d 3c76 8e3d 1e23 8cbe 03ca 123e
00000120: e59a 8e3e 1724 943e a46d 223e 200a 1f3e
00000130: 5807 623e 3cb8 423d 5238 863c aa05 a53e
00000140: ac23 d03c ad56 1c3d 4ed6 3c3c 5286 7bbe
00000150: 7847 333e ea7f 6d3e 229a 2bbe 5d15 e1bd
00000160: 41f3 413e 7906 82be 9b35 94bd d317 4ebe
00000170: eccf 79bd 5e11 3c3d b482 12be db19 0e3e
00000180: 412f e3bd 60a8 40bc d5dd 9b3e 0824 7a3d
00000190: a2b2 c23e eba2 9c3d 9b8a 393e 4e6b cb3d
000001a0: 5a63 60be 1302 efba e938 073e 8e48 753e
000001b0: bcd5 723e 6138 803e d337 80be 9472 2cbd
000001c0: c560 8cbc 31f0 eebc 17fd 553e 5439 4abc
000001d0: acce 343d eedb 123e 3d57 233e 75ed a6bd
000001e0: ca5c a7bd d9fe 5f3e 57ff 903e 464b ccbc
000001f0: 3122 44be 9f03 c2be c297 f7bc 87db 50bb
00000200: a2b2 88bd 7599 81bd 12dd 983e 77b2 8abd
00000210: d6b7 31bd eaf8 9f3e d419 45bd 990a 4f3e
00000220: 1093 11be 6952 b93e 57b5 613e acba 6b3e
00000230: c6cb f0bd a144 a9bd d713 903d 3bbd fabd
00000240: ff71 95bb 1d97 f23d 8699 63be a5aa ffbd
00000250: 0230 76be 8c52 ca3c aebd 0f3e 9bc8 a13d
00000260: 1249 b9bd 41a0 5a3e 03d2 eebd fa43 923d
00000270: cc4f d2bd 4c43 103e 64b5 29be 1b2d 30bc
00000280: 728d 15bb 138f 3d3e 3b3d 78be fa21 9cbd
00000290: 7839 3f3d 0fbe 4b3d 80f3 2bbe d9f0 073d
000002a0: fa3d c4bd 61b8 0f3e 40e7 ed3d 396c f33d
000002b0: 8f81 493e 1a73 e3bd 9866 4ebe d5ee 6f3e
000002c0: 5095 1dbd 7165 8cbd 1bc5 b13d eb11 3c3e
000002d0: 3081 a33c 8b29 983d 2224 94bd d023 7f3e
000002e0: a347 13be 9209 5fbe 01c0 dfbd 218f 9e3d
000002f0: 6632 483e a015 0cbe 991c 9b3e a8e8 86bd
00000300: dd1a b53d 998f e63d eec6 783e 1c3b f8bd
00000310: 59b3 5ebe a229 f3bd 5710 71be 7925 8bbe
00000320: 7aff 15be 4fef 3abe 8c97 fb3d efa2 983d
00000330: 77a0 4d3e f138 473e 7006 4f3e 040b 653d
00000340: e762 403e edeb 9abd 54bf 0cbc 6b98 59bb
00000350: 3c1d 103e 12f4 b1bb 9485 1cbe 516c 60be
00000360: 8204 74be ad4e 48be e75d 80be f3c3 4fbe
00000370: bc88 6b3c 56e9 97be 5f28 953c dea1 63be
00000380: 86f5 21bd 0999 8c3e 6404 5cbe d615 bebc
00000390: ae62 9a3c c002 833e f3fb 52be b84c 7c3d
000003a0: a79d 19bd ce6a ba3d 4a67 d43d 7865 a03e
000003b0: 66b9 05be 9a19 bb3d ef10 0ebd 0068 90bd
000003c0: 43a0 943e 87cd 763d 7643 853e 75b1 52be
000003d0: b1b5 1f3e 580b aa3d 40b3 2e3c 69ec 343e
000003e0: 33a0 f4bc 5cca 803e 5e30 093e 3299 95be
000003f0: 0403 1abc d1ec bebe e5b5 09be a20e 1abe
-0.07608992 0.11392996 -0.0062789507 0.21627669 -0.16464904 0.13519314 0.23447475 -0.31625465
0.2552941 -0.19187953 0.20110789 -0.036357127 0.21096015 0.14056645 -0.049208798 -0.096895725
-0.0019941146 0.4261695 -0.096470796 -0.119988404 0.19440709 -0.0104605965 -0.15211987 -0.11391161
0.113137476 -0.08822331 0.20828848 0.12581791 -0.03968912 0.22287323 0.13406721 -0.049675506
-0.19011019 0.3022078 -0.09754601 0.23239954 0.10427763 0.1656601 -0.013006698 -0.2638248
0.113933764 0.09654124 0.1325965 -0.040909674 -0.03271176 -0.15146457 0.00796005 -0.21568468
-0.041108854 -0.048899207 0.053386394 -0.22169918 0.14550398 -0.1778259 0.028242355 0.1390097
0.24035065 -0.13538274 0.18404669 0.3017161 -0.108377755 -0.41596013 0.40202188 0.2338292
0.029500185 -0.0018096602 -0.12937528 -0.023208642 0.11430043 0.06956145 -0.27370542 0.14334874
0.2785255 0.28933784 0.15862137 0.15531206 0.22073114 0.04753898 0.016384277 0.32230884
0.025407635 0.038168598 0.011525704 -0.24562958 0.17507732 0.23193327 -0.16758016 -0.10990403
0.1894045 -0.25395563 -0.07236787 -0.20126276 -0.060989305 0.045915 -0.14307672 0.1387705
-0.11092997 -0.011758894 0.30442682 0.06106952 0.3802691 0.07648262 0.1811928 0.09932576
-0.219129 -0.0018234871 0.13205303 0.23953459 0.23714346 0.25043014 -0.2504259 -0.042101458
-0.017135987 -0.029167267 0.20897327 -0.01234277 0.04414241 0.14341709 0.15951248 -0.0815076
-0.08171995 0.2187456 0.2831981 -0.024938237 -0.19153668 -0.37893388 -0.030223731 -0.003186913
-0.066746965 -0.06328098 0.29856163 -0.06772321 -0.04338821 0.31244594 -0.048120335 0.20218886
-0.14216256 0.36195686 0.22041832 0.23020428 -0.11757617 -0.08265043 0.07035034 -0.12243124
-0.0045607085 0.11845229 -0.22226533 -0.1248372 -0.24041751 0.024697565 0.14037201 0.078995906
-0.0904714 0.21350195 -0.1166115 0.07141872 -0.10269126 0.14088172 -0.16573101 -0.0107529415
-0.0022819904 0.1851161 -0.24242108 -0.07623668 0.046685666 0.0497418 -0.16792107 0.033188675
-0.095821336 0.14035179 0.11616373 0.11885876 0.19678329 -0.11105938 -0.20156324 0.23430951
-0.038472474 -0.06855286 0.08680173 0.1836621 0.019959062 0.07429799 -0.07233454 0.24916005
-0.14382796 -0.21780995 -0.10925294 0.077421434 0.19550475 -0.13680124 0.30295256 -0.065873444
0.088430144 0.11257858 0.24294636 -0.12120649 -0.21748103 -0.11873175 -0.2354139 -0.27177027
-0.14648238 -0.18255351 0.12284765 0.07452952 0.20080744 0.19455315 0.202173 0.05591871
0.18787728 -0.075645305 -0.008590538 -0.003320242 0.14073652 -0.005430707 -0.15285331 -0.2191632
-0.23829845 -0.19561262 -0.25071642 -0.20289592 0.014375862 -0.2967021 0.018207727 -0.22229716
-0.03954079 0.27460507 -0.2148605 -0.023203772 0.018845882 0.25588036 -0.20603923 0.061596602
-0.037503865 0.091024026 0.10371263 0.31327415 -0.13059005 0.091357425 -0.034684118 -0.070510864
0.2902852 0.0602546 0.2602803 -0.20575507 0.15596654 0.08302945 0.010662854 0.17668308
-0.029861545 0.25154388 0.13397357 -0.2921844 -0.009400133 -0.37290052 -0.13448294 -0.15044644

p_fc3.bias f4 [50]
00000000: 5c5c ad3c 36e2 b8bc 4024 8abc 0178 11be
00000010: 931d 62bd 94b8 d1bb 15ba 843c 1fe6 803c
00000020: 5b23 41bc ff69 a5bc 05c5 97bd 9525 563c
00000030: 6612 a6bb d1d3 5b3d 9efc c83d 3a76 b7bc
00000040: b09c 393d 7b2b 83bd 5722 05be 2026 69bd
00000050: 42fb 87bd 34fe cd3d 1548 4bbd d881 353d
00000060: dabf d6bd 5c2d 7abc 96f1 253a 8c34 af3d
00000070: 0481 1dbd 72f4 023d 7a15 873d 86e4 903c
00000080: 1b8f 0f3b d805 813d 10ac 073c 2d23 30bc
00000090: a6e9 853c 0b63 433c 391d 953c 4ba9 d83b
000000a0: 7d94 27bd 2275 09bb 8c06 12bd b4ec f6bc
000000b0: b8fc c73c bf2b 623b ebd5 223d 1c80 073d
000000c0: ade5 11bd af82 013d
0.021162204 -0.022568803 -0.016862988 -0.14205934 -0.055203985 -0.0064001773 0.016202012 0.01573473
-0.011788215 -0.020192144 -0.07410625 0.013070484 -0.0050681112 0.0536688 0.09813808 -0.022395242
0.045315444 -0.064047776 -0.13001381 -0.056921124 -0.066397205 0.10058251 -0.04962929 0.04431328
-0.104858115 -0.015269604 0.00063302496 0.085549444 -0.038453117 0.031971402 0.06595893 0.017687093
0.0021905366 0.06299943 0.008280769 -0.010750574 0.016346764 0.011925469 0.018202411 0.006611978
-0.040913094 -0.0020974358 -0.035650775 -0.030142166 0.024412498 0.0034510938 0.03975479 0.03308116
-0.035619427 0.03161877

v_fc1.weight f4 [256, 136]
00000000: e8a1 08bb fb0a e6bb 3cab 0fbf 5969 7cbd
00000010: 53e0 273d dcdb 92be 6ad0 0c3d e6fa 043d
00000020: 229d 37be bb19 bf3e 30a1 38be 0e25 b7be
00000030: c0c3 373e 505c 5fbd bbcc 15be 2e1f 55bd
00000040: d97c 88bc 514a 9a3e 3a6a c93d c2a2 8abc
00000050: b092 6c3e 9b22 983d b918 14bd eae5 eb3c
00000060: eb3f 763e fc99 4fbe 1828 993e 7773 e23d
00000070: c245 66be 4136 013e ac67 13bf c193 523d
00000080: 4323 92bf f5c4 79bd 3e01 ad3c 26e6 b1be
00000090: 32ac 233e e2cf 31bc 902f fa3d fb4f f5bc
000000a0: 9528 123d 54d2 8abd 49f1 283e 230b 8abd
000000b0: a354 513d f8ee 573c 62ba 173d f269 89bd
000000c0: af27 4f3c 1d8c e0bd 745c d3bd 7604 d0bd
000000d0: 66ac 9b3c 8a0a 55bc 5104 2f3e 6a6c 073e
000000e0: 7f89 1c3e 918b 0a3e dcd3 b9bd b2a6 dd3e
000000f0: 10f2 e13d a756 dfbe b9e9 1ebf c521 0abd
00000100: 7195 4bbd 56df 37be 3ab1 a9be 8fef 25be
00000110: 13dc 453d 0518 cfbd f698 a93e bc79 003e
00000120: 3622 b43e 78da 603e ec54 8fba cd11 603e
00000130: 3bb7 4fbd 5432 51be e269 d23d a178 323d
00000140: 52a3 91be 14fa 0cbf 085c bbbc ad5a 443e
00000150: 8e33 dfbd 7ef3 2b3d a4d3 9a3e 9727 413e
00000160: 9bcc 90bd 6f0b 553e 01a6 633e 01f0 ecbe
00000170: f8f9 e53d b18c 0d3d 3174 eabd a3b2 b13d
00000180: 95ed c7bc 171b d5bc e17b 65be 123c 923d
00000190: 582d b03c e450 99be aeee 513c 9a66 bc3b
000001a0: b6ed d2bd 765e 843e 4a31 b73c 1372 6ebe
000001b0: 9b17 a2bd 7c3e 3e3e e9d0 81be 82fb 0cbe
000001c0: 513e 333e 6cee 63be a851 003e c993 283e
000001d0: 8ebc c5bd 408f 363e 4b27 1a3e 95a7 3bbe
000001e0: 2351 20bd 86ca 5e3e 19f4 7bbe 3e60 5a3e
000001f0: 3045 873d 6aa9 b3bd d43c a23d 8ef1 263e
00000200: 5972 143e 0563 5e3e 4e15 14be 3973 073e
00000210: d6e0 09bd ad89 34be d867 b1be 60c9 413e
00000220: f01a 15bd 4b15 9fbd 3989 cdbe 9d28 98be
00000230: f555 e03c e7dc 7fbe 3e3d dabe 8372 6e3e
00000240: 6061 c7be b7e5 adbe 3a53 e03d b088 b8be
00000250: 16af 1dbf f52d 893d 21fa 05bf 2cb0 d03e
00000260: 09ec 85bc eb3a 993e 07c8 773e 67b2 673e
00000270: 5a13 8f3e d56a 653c b7a0 933e b295 f93d
00000280: b0ac b83e 0f59 383d 8012 3d3e a181 283e
00000290: fec8 673d f6d6 e73d 01d9 51bf a184 543e
000002a0: 4c9a d3be 6537 37bf c3e2 1e3e 63c8 c6bc
000002b0: 899d c5be d463 1abe 6541 c5bb 2d35 8cbe
000002c0: c654 edbd ed77 e3bc 831f 8abe 098b 74bd
000002d0: fbe2 943d 0e5b 12bd 58fd 2b3e 6cd1 183d
000002e0: 98b2 10be e335 00bf af30 803e 45fa fd3c
000002f0: 3e14 84be 0fed ba3e 4d2e 8b3e 158b 62bc
00000300: 0b67 72be 50f4 503e 1469 083e 605f 1bbd
00000310: 523e 0c3e 802e f0be fb60 51be 3f4c 363e
00000320: 2e13 95be 182a 683d 4523 843e 9a1e 193f
00000330: c860 fbbc fd25 633d 853c b03e d971 593d
00000340: f774 3f3d 4d7a c13d 5fe4 5dbe c264 f1bd
00000350: 3065 713d 1bb9 0cbd 110a 69be b20c 95be
00000360: bd53 73be 76c8 babe 9038 d13e a289 8b3e
00000370: 2b69 b1bb 2701 9a3d 2284 2d3e 5c99 2b3e
00000380: 219b a1be 438b a73b 60e5 75be f07a a3bb
00000390: e996 313e 8bb9 ddbe 0c8e 81be 9cc9 1a3e
000003a0: 41c5 333f e116 843e ba09 873c e9ec ed3e
000003b0: ff27 543e 0cb8 afbd 31dc ba3e 7a4b 6c3e
000003c0: 62f7 c0bd f281 cc3e 094d 803e a50c c03d
000003d0: 0ba3 863e 2c16 d13e 4245 edbd ca85 813e
000003e0: 57be d43e 0bb8 a03d 7c89 6a3e 0e9f f33d
000003f0: a2ae 3abd 86fa 683d 2959 c73c db3b b538
-0.0020848457 -0.007020352 -0.5612066 -0.061623905 0.040985417 -0.28683364 0.034378447 0.032465838
-0.17931035 0.37324318 -0.18030238 -0.35770458 0.17945766 -0.054531395 -0.1462888 -0.05203169
-0.016661095 0.30134824 0.09834714 -0.016923312 0.23102832 0.074284755 -0.03615639 0.028796155
0.2404782 -0.20273584 0.29913402 0.110571794 -0.22487548 0.12618352 -0.57580066 0.05141044
-1.1417011 -0.06097885 0.021118756 -0.34745902 0.15983656 -0.010852786 0.12216103 -0.029945364
0.035683233 -0.06778398 0.16498293 -0.067404054 0.051106106 0.013179533 0.037042983 -0.067096606
0.012643739 -0.109642245 -0.103203684 -0.10157101 0.019003104 -0.013003001 0.1709149 0.1322495
0.15286826 0.13529803 -0.09073612 0.4329124 0.11032498 -0.43620798 -0.6207538 -0.03372361
-0.049703065 -0.1795629 -0.33143026 -0.16204666 0.048305582 -0.10112003 0.33124512 0.12546438
0.3518235 0.21958339 -0.0010935343 0.2188179 -0.05071185 -0.20429355 0.10274102 0.043572072
-0.28444916 -0.5506909 -0.022871032 0.19175215 -0.10898505 0.04198026 0.30239594 0.18862759
-0.070702754 0.20805143 0.22231294 -0.46276858 0.112293184 0.034558002 -0.11447943 0.086766504
-0.02440528 -0.026013894 -0.22410537 0.07140364 0.021505997 -0.29944527 0.012813253 0.0057495357
-0.10299246 0.25853318 0.02236237 -0.23285703 -0.07914659 0.18578523 -0.25354698 -0.13767818
0.1750424 -0.2225892 0.1253115 0.16462626 -0.096551046 0.17828083 0.15054052 -0.18325646
-0.039139878 0.21756944 -0.24604835 0.21325776 0.06604993 -0.087725475 0.07921758 0.16303083
0.14496745 0.2171746 -0.14461252 0.13227548 -0.033661686 -0.17630644 -0.3464954 0.18924475
-0.036402643 -0.07767733 -0.40143755 -0.29718485 0.027384738 -0.24986611 -0.4262485 0.2328587
-0.3894148 -0.3396432 0.10953374 -0.36041784 -0.61595285 0.06698219 -0.5233479 0.40759408
-0.016347902 0.29927763 0.24197398 0.22626649 0.27944452 0.0140025215 0.28833553 0.12186755
0.3606925 0.045006808 0.18464088 0.164557 0.056588165 0.113202974 -0.81971747 0.20753719
-0.41328657 -0.715689 0.1551619 -0.024265474 -0.38596752 -0.15077144 -0.0060197585 -0.2738432
-0.11588435 -0.027767146 -0.26977167 -0.059702907 0.072698556 -0.035731368 0.16795862 0.037309095
-0.14130628 -0.50082225 0.25037143 0.031003127 -0.25796694 0.36508986 0.27183762 -0.013827105
-0.2367212 0.20405698 0.13321334 -0.037932754 0.13695648 -0.46910477 -0.20447151 0.17802523
-0.29116195 0.05668077 0.2580816 0.5981232 -0.030685797 0.05545615 0.34421173 0.05308709
0.046742406 0.09447155 -0.21669148 -0.11786796 0.05893439 -0.034356218 -0.22757746 -0.29111248
-0.23762412 -0.36481065 0.40863466 0.27253443 -0.0054141483 0.07519751 0.16944936 0.1675772
-0.31563666 0.005113037 -0.24013281 -0.0049890205 0.17342724 -0.4330562 -0.25303686 0.1511597
0.7022286 0.25798705 0.01648413 0.4646981 0.20718382 -0.08580026 0.36496118 0.23075667
-0.094221845 0.3994289 0.25058773 0.09377412 0.26296267 0.40837228 -0.115854755 0.25297385
0.41551468 0.078476034 0.22904009 0.11895572 -0.0455767 0.056879543 0.024334507 8.6419015e-05

v_fc1.bias f4 [256]
00000000: ad32 a13d b798 47be 2e36 2a3e 4cda 573e
00000010: b614 423d 07ff 2e3e 36f4 f8bd dd69 c93d
00000020: 9641 85be c8db 08be 098e 503e c67a cbbe
00000030: 1040 a9be 11d2 1f3e 0000 0000 30d8 a13c
00000040: 17dd 84bd e120 323e 5a35 6f3c 6d69 763e
00000050: 6dd1 eb3d f96d a93d 118f 57bd 81d8 383e
00000060: d274 133e 5563 123e 506d f1bd 55f0 82be
00000070: acb4 0bbe 91cc c23d 1359 a9bd bc47 51bb
00000080: 9307 82be 4583 acbe 43f5 5a3e 4f60 52be
00000090: d1b6 06bf a78d c43d 2931 043e 3566 e5be
000000a0: 2af5 32bf 69fb c63e 62e1 f5be 1cd1 e13d
000000b0: 0ad0 f0be 0a79 cfbd f7a1 b5bc 0127 373e
000000c0: 8bf5 5e3e fb35 c83e 3a59 eebe 51dc e2bd
000000d0: 7730 ca3d 39ea 03bf c682 2b3d eafb 113d
000000e0: 9875 ff3d 8d0b 80bf 044c 47be df9c de3d
000000f0: cbcb b1bd 3165 76be 0fc2 04be cca9 773e
00000100: 0b9c c7be 658c 9fbe 894d 643d 76d7 b03c
00000110: edf2 f73e 4498 28bf 53ab 0f3e c44d f2be
00000120: 2c07 49bf ac79 93be e5d6 763e a064 0b3d
00000130: 2f8a ebbe 3b18 acbe faa0 a93d 13c0 593e
00000140: 4ccf 3cbf 7112 853e c0db afbe d776 5a3e
00000150: 80dc afbd 3838 81bf eb99 d73c f8d2 93be
00000160: c1e1 acbb e6d1 9f3e 46d8 7e3d 671c 433e
00000170: 7c47 633d 2df4 b03b 2b9e 5b3d 3a58 f23d
00000180: a67a 7cbb 0936 033e 1f3b 8e3e 5106 aebe
00000190: 3556 d9be e34a ef3b 6a5d f4bd 4be4 143e
000001a0: e9b0 a7be 5050 fcbe 11a8 4bbf 3cc1 e93c
000001b0: e65a b53d f41a 133f e5f5 13bc 6d0c 14bf
000001c0: 5084 1e3e f1b7 273e 5aee 44be fda6 51be
000001d0: 4702 c1be 5f33 723e 87c9 d6be 4c67 373e
000001e0: a14b 093e 0a00 25be d429 6c3e e525 093e
000001f0: 6595 373e 4663 f23c 94bd 003d 25f4 1e3e
00000200: 15e9 1abe a241 a33e 7236 98be 085e 0bbe
00000210: 0abc a43d a0d1 1a3d f5d6 0b3e d127 26bd
00000220: fa4b b13d 4e71 82be 8199 dabe 2796 203d
00000230: 37db c7be 8847 33bf 94e3 2fbc 74f6 9b3d
00000240: 0f31 d1bd 4981 33be fac2 1f3e a0bf a7be
00000250: a8a5 26bc 7ae4 9f3c b46c 073e 04e9 dcbe
00000260: b8a0 27be d5ca ddbe 2dba 66be 24bf 073d
00000270: d6d2 f4be 62e6 18bc 7187 38bf 13d9 443e
00000280: bef7 543e 8502 a33d d24c 493e 25af 4e3e
00000290: 02e0 71be 1bcf f4be 40fa 72bf f290 d4be
000002a0: 9eee 50bf 36a4 41be cc6e 5dbc 8266 013f
000002b0: 4516 4dbf 2c42 0abc 5fff e53d 0d0d 563e
000002c0: e020 f0be 963b 043e e8e3 07be da7b 34bd
000002d0: 17e8 ef3d 7e98 2a3e ec87 843e 264c 0a3d
000002e0: e191 413d e047 603e 51f7 0e3e 23b3 94bd
000002f0: d57f fc3d 6452 82be cc3b 793d eff1 16be
00000300: 44e2 a4be 0e35 67bb 376a f33c f170 143c
00000310: e069 81be 94f3 f8bd 1a52 ba3e 2b0e 4a3e
00000320: ce8d 00be 7199 e8be 95b8 aabe e331 63be
00000330: a150 32bf f83d d2be 7dad eb3e 9270 b23e
00000340: 4623 18bc ef13 c43d 1932 5abe 85cd c03e
00000350: fb45 fabe 346d 6ebe 56d9 16bc a74c 3b3e
00000360: ddd4 b8be 3b95 483e 1d97 883c b898 13bc
00000370: 6b7d a73d 2429 dd3d 9130 783d 49a5 8abe
00000380: f5cd 9f3d 42ca 4ebf 1ebb 9c3d 2181 8a3e
00000390: 60de 8d3b bb46 263d 41d4 63bc b01b 853e
000003a0: 8ca8 9c3e cf18 f73c 5320 363e aec1 53bc
000003b0: 0a3b 833d 356a 19bf cf10 5abe 3cbf cebd
000003c0: ee05 fbbd 33dc 10be 9021 7e3d 43a3 2b3d
000003d0: d93c 873b 7165 023d 43c3 ebbe 4fdf d03c
000003e0: 8cc2 fc3c eeb1 46be cd2d 21bd 716d 4c3d
000003f0: b297 93be 1c81 2a3d dac1 513e e4d2 68be
0.07870994 -0.1949185 0.1662223 0.21079367 0.047383033 0.17089473 -0.121559545 0.09834645
-0.260266 -0.1336509 0.20366682 -0.39742106 -0.33056688 0.15607478 0.0 0.019756407
-0.06487482 0.17395355 0.014600122 0.24063654 0.11514554 0.08272929 -0.052626673 0.1805134
0.14400032 0.14295705 -0.11788428 -0.25573984 -0.1364314 0.09511674 -0.08268943 -0.0031933626
-0.25396404 -0.336939 0.21382622 -0.20544551 -0.52622706 0.095973305 0.12909378 -0.4480454
-0.6990534 0.38863686 -0.48023516 0.110262126 -0.4703372 -0.10130508 -0.022171957 0.17885973
0.21773355 0.39103684 -0.4655245 -0.11077178 0.09872525 -0.5152927 0.041872762 0.035640635
0.12473601 -1.0003525 -0.19462591 0.108697645 -0.086814485 -0.24062039 -0.12964652 0.24185866
-0.3898624 -0.311618 0.055738006 0.021587115 0.48427525 -0.6585734 0.14030199 -0.47324955
-0.7852657 -0.28803766 0.24105413 0.03403151 -0.46003863 -0.33612236 0.08282657 0.21264677
-0.7375381 0.25990632 -0.34347343 0.21334396 -0.08586979 -1.0095282 0.026318511 -0.28871894
-0.0052759354 0.31214827 0.062217973 0.19053803 0.055488095 0.005400202 0.053617638 0.11833234
-0.0038525253 0.12813582 0.2777948 -0.33989194 -0.42448583 0.0073026284 -0.1193188 0.14540212
-0.3275216 -0.49280024 -0.79553324 0.028534524 0.08855228 0.57463 -0.009030794 -0.5783146
0.1548016 0.16378762 -0.19231549 -0.20473857 -0.3769705 0.23652409 -0.41950628 0.17910498
0.13407756 -0.16113296 0.23062831 0.13393362 0.17928083 0.029588353 0.031430796 0.15522821
-0.15127976 0.3188601 -0.29729038 -0.13610089 0.08043678 0.03779757 0.13656218 -0.040565316
0.086570695 -0.2547707 -0.4269524 0.039205696 -0.39034435 -0.70031023 -0.010735411 0.076153666
-0.10214435 -0.17529787 0.15601721 -0.32763386 -0.010171331 0.019518126 0.1322506 -0.43146527
-0.16369903 -0.4331881 -0.22531958 0.03314127 -0.47817105 -0.009332271 -0.7208167 0.19223432
0.20797631 0.07959465 0.19658211 0.20184 -0.23620608 -0.4781426 -0.949131 -0.41516834
-0.816141 -0.18910298 -0.013515186 0.5054704 -0.80112106 -0.008438628 0.11230349 0.20903416
-0.46900082 0.12913355 -0.13270533 -0.044063427 0.117141895 0.16659734 0.2588495 0.033764027
0.04725826 0.21902418 0.13961531 -0.0726073 0.123290695 -0.25453484 0.060848042 -0.14740728
-0.32203877 -0.0035279426 0.029713733 0.00906013 -0.2527609 -0.12155834 0.36390764 0.19731967
-0.12554094 -0.45429567 -0.3334395 -0.22186999 -0.6965428 -0.41062903 0.460308 0.3485151
-0.009285754 0.095741145 -0.21308173 0.376568 -0.48881516 -0.23283845 -0.00920709 0.1829096
-0.36099902 0.19588177 0.016673619 -0.009008579 0.081782185 0.107988626 0.06059319 -0.27079228
0.07802955 -0.8077737 0.07652877 0.27051643 0.0043294877 0.040594798 -0.013905586 0.25997686
0.3059734 0.030163197 0.17785768 -0.012924595 0.06407745 -0.59927684 -0.21295474 -0.10095069
-0.122569904 -0.141465 0.062043726 0.041903745 0.0041271267 0.031835023 -0.4604741 0.025497107
0.030854486 -0.19403812 -0.03935032 0.04990906 -0.28826672 0.041627035 0.20484105 -0.22736698
